models/simple_rl_model.pt (torch, 769454 bytes, 8 tensors)

weight f4 [512, 45]
0	0xbe4d8d7c	-0.20073503
1	0x3b6ddd58	0.0036295261
2	0xbd105c98	-0.035244554
3	0x3e8dd73c	0.27703273
4	0xbd2467ed	-0.040138174
5	0x3d82703e	0.06369065
6	0xbe746abf	-0.23868845
7	0x3c839756	0.016063374
8	0x3d8c92e3	0.06863954
9	0x3cebe867	0.028797342
10	0xbe80185e	-0.2501859
11	0x3e2873f4	0.16450483
12	0x3e934ff0	0.28771925
13	0xbe42bc69	-0.19017185
14	0xbe612951	-0.21988417
15	0xbe903a8e	-0.28169674
16	0x3ed72db4	0.42027056
17	0xbe02ee77	-0.1278628
18	0xbe520f35	-0.20513614
19	0x3db0283b	0.08601423
20	0xbdc1dbd3	-0.09465756
21	0xbdd60f05	-0.104520835
22	0xbd9e3124	-0.077242166
23	0xbf4fbad2	-0.8114444
24	0x3e4c0024	0.19921929
25	0xbdcc7d7e	-0.09984873
26	0xbf217211	-0.63064677
27	0x3cdad447	0.02671255
28	0x3e17595f	0.14780186
29	0x3eb58285	0.3545114
30	0xbeef27b8	-0.4670999
31	0xbe2719d6	-0.1631845
32	0xbf8ee0ec	-1.1162391
33	0x3d0eae9a	0.03483448
34	0x3d347677	0.04405829
35	0x3cc1c489	0.023653286
36	0xbd89cfa2	-0.06729056
37	0xbd320f7d	-0.043471802
38	0x3dbb3300	0.09140587
39	0xb94debda	-0.00019638185
40	0xbc586ce8	-0.013209559
41	0xbdb12347	-0.08649307
42	0xbce17610	-0.027522117
43	0x3dce7fc7	0.10082965
44	0x3de0b536	0.10972063
45	0x3dd7e281	0.10541249
46	0x3e03cb3a	0.12870494
47	0x3eb60a1d	0.3555459
48	0x3ea721e7	0.32643053
49	0xbdf78ad0	-0.12087023
50	0x3dd1cd13	0.10244193
51	0x3e12b5b8	0.14327133
52	0x3e38ced9	0.18047656
53	0xbe49e7c9	-0.19717325
54	0x3e017f45	0.12646206
55	0x3e0537d2	0.13009575
56	0xbe16586f	-0.14682172
57	0xbdb5c3ea	-0.08875258
58	0xbe3cc5e2	-0.18434861
59	0x3e883e7b	0.2661017
60	0x3d885e0d	0.06658564
61	0x3e4a7e89	0.19774832
62	0xbe66fb52	-0.22556809
63	0xbd9fa22a	-0.07794602
64	0xbe4dd96c	-0.20102471
65	0x3e0a03e6	0.1347805
66	0xbf296517	-0.66169876
67	0x3f43302b	0.76245373
68	0xbf0ccc8a	-0.549996
69	0x3dba74b0	0.091042876
70	0xbec47020	-0.38366795
71	0xbee2ab59	-0.44271353
72	0xba993ff1	-0.001169203
73	0xbe3b6f12	-0.18304089
74	0xbf30444d	-0.6885422
75	0x3d8b9900	0.06816292
76	0x3eb1ae72	0.34703404
77	0xbed8d929	-0.4235318
78	0xbd02ad06	-0.03190329
79	0xbd3a00a4	-0.045410767
80	0x3d1961a5	0.037446637
81	0x3d06643e	0.032810442
82	0x3ba053da	0.0048928084
83	0xbbe25989	-0.006907646
84	0x3ccde1ee	0.025132146
85	0x3c447760	0.011991352
86	0x3ca9e963	0.02074117
87	0xbd6058f2	-0.054772325
88	0x3ce1f07f	0.027580498
89	0xbcde7e2e	-0.027159777
90	0xbe2c4742	-0.16824058
91	0x3ea15248	0.31508088
92	0x3d5566c3	0.052099954
93	0x3effdb84	0.49972165
94	0xbe22d828	-0.1590277
95	0x3df33124	0.11874607
96	0x3ddeedc9	0.10885198
97	0xbd1cfda9	-0.038327847
98	0xbe833537	-0.25626537
99	0xbed4dd5f	-0.41575143
100	0x3dc3585a	0.09538336
101	0x3da872e3	0.08225038
102	0xbea07ad5	-0.31343713
103	0x3e8729b8	0.26399016
104	0x3d8a0e89	0.067410536
105	0x3ebb38c5	0.3656675
106	0xbe99e644	-0.3005849
107	0x3ec6e432	0.38845974
108	0x3e38b38d	0.18037243
109	0x3e90d453	0.2828699
110	0xbd67e8aa	-0.05661837
111	0x3ea6f4ff	0.32608792
112	0xbf046474	-0.5171578
113	0x3e2addb6	0.16686139
114	0xbf8061a0	-1.0029793
115	0x3dbdcd35	0.09267656
116	0x3c4f24f9	0.012643092
117	0x3f173be7	0.5907578
118	0x3ebf8733	0.37407836
119	0xba6ee484	-0.0009113031
120	0xbf1bc1e1	-0.6084271
121	0x3eb155b6	0.34635705
122	0x3f2018a3	0.6253759
123	0xbc73806c	-0.014862161
124	0xbb07c8a1	-0.002071895
125	0x3ba820d3	0.005130866
126	0x3aefb784	0.0018288945
127	0x3c8663c3	0.016404992
128	0xbced54e9	-0.028971152
129	0x3c03654e	0.008019758
130	0x3c909c80	0.01765275
131	0x3ccc7dd5	0.024962345
132	0xbca5a883	-0.020221954
133	0x3c5d4e3f	0.013507425
134	0x3c294a0a	0.010332594
135	0x3e4d1625	0.20027979
136	0xbe094277	-0.1340426
137	0x3e71be77	0.23607813
138	0xbe1e6267	-0.15467225
139	0xbdda2f5a	-0.10653563
140	0xbda15087	-0.078766875
141	0xbd8a2586	-0.06745438
142	0x3e8406d3	0.25786456
143	0xbe91be10	-0.2846532
144	0x3d6cc6dc	0.057806835
145	0xbdc5c416	-0.09656541
146	0xbe541a74	-0.20713216
147	0xbe02e19d	-0.12781377
148	0x3e3832ec	0.17988175
149	0x3ce7984e	0.028270867
150	0x3d8bbfa3	0.06823661
151	0x3e975db1	0.29563668
152	0x3e8d2d67	0.27573702
153	0xbdbad657	-0.09122913
154	0xbd488cdd	-0.048962463
155	0xbd32c602	-0.043645866
156	0xbd32f3ee	-0.04368966
157	0x3f96479e	1.1740606
158	0xbe9de14c	-0.3083595
159	0xbd7d5645	-0.06184985
160	0x3f804209	1.0020152
161	0xbeff9e6c	-0.49925554
162	0x3cc6e48c	0.024278902
163	0x3e28aaa6	0.16471347
164	0x3ee31e26	0.4435894
165	0x3eae2b25	0.34017292
166	0xbe0ab9ee	-0.13547489
167	0x3df4d2a8	0.11954242
168	0x3c3c601b	0.011497523
169	0xbcf5fd78	-0.03002809
170	0xbd0c7758	-0.034293503
171	0x3d0dddac	0.03463523
172	0x3cbf980f	0.023387937
173	0x3c0517c7	0.008123345
174	0x3d40f32a	0.0471069
175	0x3d8f1942	0.069872394
176	0xbcfb0d81	-0.030646088
177	0xbbfeaf3d	-0.007772355
178	0x3da930a1	0.08261228
179	0xbd33f343	-0.043933164
180	0xbe1542aa	-0.14576212
181	0xbcb657a1	-0.022258582
182	0x3d7029c5	0.058633585
183	0xbda66a38	-0.08125728
184	0xbeacbf07	-0.33739492
185	0x3d830472	0.06397332
186	0x3d9adbd8	0.07561463
187	0xbdf55706	-0.11979489
188	0xbea80519	-0.3281639
189	0xbe01bc59	-0.12669505
190	0xbb3dd418	-0.002896553
191	0x3dd32538	0.10309833
192	0x3c5e0c1c	0.013552692
193	0xbdd2243a	-0.10260816
194	0xbd17b6b7	-0.037039485
195	0xbea665e0	-0.324996
196	0xbe2592ea	-0.16169325
197	0x3e8d1f9e	0.27563184
198	0x3e309b32	0.17246702
199	0x3cc7e711	0.024402173
200	0xbea548e1	-0.32282165
201	0x3f2ad4e6	0.6673111
202	0x3e9a2678	0.30107474
203	0x3e15d920	0.14633608
204	0xbcc51c65	-0.024061391
205	0xbe328156	-0.1743215
206	0xbe0cf790	-0.13766313
207	0xbee35901	-0.44403842
208	0x3f00a983	0.50258654
209	0xbdc5c45f	-0.096565954
210	0x3f04edbb	0.5192525
211	0xbe9d3a21	-0.3070841
212	0xbf7d6956	-0.98988855
213	0xbd9b2338	-0.07575077
214	0xbd85cfdc	-0.06533787
215	0xbd73e387	-0.05954316
216	0x3b68582c	0.0035452945
217	0x3cb5b937	0.022183044
218	0x3bce39a3	0.006293492
219	0x3bd1e34f	0.006405271
220	0xbd14bc75	-0.03631254
221	0xbcb075e0	-0.021540582
222	0x3d6283b2	0.055301376
223	0xbd90fb75	-0.070792116
224	0x3d9583a1	0.07300497
225	0x3ec69351	0.38784268
226	0xbe286b01	-0.16447069
227	0xbe467da7	-0.1938387
228	0xbe81443a	-0.25247365
229	0xbe75ddbb	-0.24010365
230	0x3e0dfc6e	0.13865826
231	0x3e74dfbf	0.23913477
232	0xbd5957ab	-0.053062122
233	0x3ebb2ce4	0.36557686
234	0xbe222366	-0.15833816
235	0x3ea667d1	0.3250108
236	0x3d37bbc5	0.044856805
237	0xbe7685fe	-0.24074551
238	0xbeb4093c	-0.35163295
239	0xbd001504	-0.031270042
240	0x3ef0f87e	0.47064584
241	0xbd8fb217	-0.0701639
242	0xbd395e59	-0.045255993
243	0x3e5d04c3	0.21583848
244	0x3d57bb77	0.052669015
245	0xbd57c54b	-0.052678388
246	0x3e71c4ef	0.2361028
247	0x3efc9b75	0.49337354
248	0xbf5ee117	-0.8706221
249	0x3f5281d9	0.8222938
250	0x3e9b6602	0.30351263
251	0xbde58db9	-0.11208672
252	0xbdff12d7	-0.12454765
253	0x3d08aa17	0.033365335
254	0x3df1cb0a	0.11806305
255	0xbef72a2a	-0.48274356

bias f4 [512]
0	0xbdf226b5	-0.11823789
1	0x3ccc058a	0.024904985
2	0xbce31a59	-0.027722524
3	0x3dd493ec	0.10379776
4	0xbc485259	-0.012226664
5	0xbdf9a616	-0.121898815
6	0xbe289f72	-0.16467074
7	0x3e2bf6db	0.16793387
8	0xbdfe67d0	-0.124221444
9	0xbdb90319	-0.09033794
10	0x3e083fdc	0.1330561
11	0xbddceedf	-0.107877485
12	0xbd8dab5d	-0.069174506
13	0xbcf22551	-0.02955881
14	0xbdec336a	-0.11533244
15	0xbdb9ba7a	-0.09068771
16	0x3d1dbef9	0.038512204
17	0xbd8dd3a2	-0.069251314
18	0xbdf1c0fc	-0.11804387
19	0xbd0988c0	-0.03357768
20	0x3bfea3ef	0.0077710073
21	0x3c8f7dfe	0.017516132
22	0xbca1fcd3	-0.019773876
23	0x3d8d24e3	0.06891801
24	0xbe2a4032	-0.16626051
25	0xbd828561	-0.06373096
26	0x3c3ea98f	0.011637106
27	0x3e099ad7	0.13437973
28	0xbdbc760d	-0.09202204
29	0xbe20095d	-0.15628572
30	0xbca2266b	-0.01979371
31	0x3e1718f1	0.14755608
32	0xbdcc93a3	-0.09989097
33	0xbcde0e16	-0.027106326
34	0x3d3be63d	0.04587387
35	0xbe041cd9	-0.1290163
36	0x3dbec6cd	0.09315262
37	0xbd8b2746	-0.067946
38	0x3dbe2b76	0.09285633
39	0x3df217f2	0.118209735
40	0x3d303ca2	0.043026574
41	0xbd909a14	-0.07060638
42	0x3d830a7f	0.06398486
43	0xbd90d2fc	-0.07071492
44	0xbe036053	-0.12829714
45	0xbe0d0957	-0.13773094
46	0xbd2a54f4	-0.041584924
47	0xbd93892d	-0.072038986
48	0xbd9752ec	-0.07388863
49	0xbc95b1f2	-0.018273327
50	0x3d257edc	0.040404186
51	0x3cd63fd0	0.026153475
52	0xbdaef1bd	-0.08542202
53	0xbd348797	-0.04407462
54	0x3cddb0cf	0.027061848
55	0xbe36fb39	-0.17869271
56	0x3d9dea82	0.077107444
57	0x3ca5c599	0.020235823
58	0x3db5e2af	0.08881127
59	0xbe0a982b	-0.1353461
60	0xbd6c65b2	-0.05771417
61	0xbe197302	-0.14985278
62	0xbda159ff	-0.078784935
63	0x3db45d79	0.08806891
64	0xbd0439d9	-0.03228173
65	0xbdcc84a2	-0.09986235
66	0x3dd8ae2c	0.10580096
67	0x3c2e8367	0.010651446
68	0x3cebc1c1	0.028778912
69	0xbdce3386	-0.10068421
70	0xba9ca23b	-0.0011950204
71	0xbcc5e952	-0.024159107
72	0x3bb0f46c	0.005400231
73	0xbdc55216	-0.09634797
74	0xbd91e8dc	-0.071244925
75	0xbe2becc6	-0.1678954
76	0xbd9cfdec	-0.07665619
77	0xbe1df4d1	-0.15425421
78	0xbd57812e	-0.05261343
79	0xbe35884d	-0.17727776
80	0xbdb2ede6	-0.08736782
81	0xbdee4c1a	-0.11635609
82	0xbe71e95d	-0.23624177
83	0xbe2b0a18	-0.16703069
84	0xbd5e09a0	-0.054208398
85	0xbd475569	-0.048665438
86	0x3d79c767	0.06098118
87	0x3c42126c	0.011845212
88	0xbbd4c335	-0.006492997
89	0x3ca9e1ee	0.020737614
90	0x3d14ebde	0.036357753
91	0xbcaaf8a7	-0.02087052
92	0xbd6531f9	-0.05595586
93	0xbdd51d7a	-0.10406013
94	0x393f1b8e	0.00018225444
95	0xbce3c077	-0.027801735
96	0x3d96e48d	0.07367811
97	0x3e398790	0.18118119
98	0x3c30702c	0.010768931
99	0xbda49789	-0.080367155
100	0xbdac15a1	-0.08402563
101	0x3db75d30	0.08953321
102	0xbd36ee7f	-0.04466104
103	0xbd9b4afb	-0.07582661
104	0xbdd0b20a	-0.10190208
105	0x3d386793	0.04502065
106	0x3e05e588	0.1307584
107	0x3e135bcb	0.14390485
108	0x3c8bfe56	0.01708905
109	0xbd88da67	-0.06682282
110	0xbde01df4	-0.10943213
111	0x3d9db44f	0.07700407
112	0x3e0d5669	0.13802494
113	0xbe233b2a	-0.15940538
114	0x3d858b70	0.06520736
115	0x3d9eb18e	0.077487096
116	0xbd068d6b	-0.03284971
117	0x3de502d0	0.11182177
118	0x3e174ed0	0.14776158
119	0xbb6b8914	-0.003593986
120	0xbd7c9b6b	-0.061671656
121	0xbbee6395	-0.0072750547
122	0x3d7a8b9e	0.061168306
123	0x3dab5134	0.08365098
124	0x3d38646b	0.04501764
125	0xbdb40a85	-0.08791069
126	0xbd0d175d	-0.03444611
127	0x3e20f936	0.15720066
128	0xbc548801	-0.012971879
129	0x3e531934	0.20615083
130	0xbd2497ea	-0.04018394
131	0xbd8d4470	-0.06897819
132	0x3cd7fbac	0.026365124
133	0x3cd9ab6d	0.026571
134	0xbd46dd2d	-0.048550773
135	0x3cbe62bb	0.023240438
136	0xbc7d1235	-0.015446235
137	0xbe2122e8	-0.15735972
138	0xbd8a12b1	-0.06741846
139	0xbdcd40af	-0.10022103
140	0x3d4a126d	0.04933398
141	0x3d941c38	0.07231945
142	0xbdf4a4fa	-0.11945529
143	0xbddc229c	-0.10748789
144	0x3a9e8afa	0.0012095862
145	0xbe275bea	-0.16343656
146	0xbd50ce1b	-0.050977807
147	0x3bcc7a3f	0.006240159
148	0x3e2b6e23	0.16741233
149	0x3c06cb2a	0.008227149
150	0x3d3de391	0.046359602
151	0xbd9eb3ce	-0.07749139
152	0xbd9ecd91	-0.077540524
153	0x3d52ad76	0.051434956
154	0x3b2f6503	0.0026763089
155	0x3d06792c	0.032830402
156	0xbd59b245	-0.053148527
157	0xbd834447	-0.06409507
158	0x3df905c5	0.121593036
159	0xbddb2ce6	-0.10701923
160	0x3e34920c	0.17633837
161	0xbc831c14	-0.0160046
162	0x3da2d530	0.079508185
163	0x3de9e828	0.114212334
164	0x3db9d6c2	0.09074165
165	0xbd26b766	-0.040702246
166	0xbd94258a	-0.072337225
167	0x3d376432	0.044773288
168	0x3db85a11	0.09001554
169	0x3d1e043b	0.038578253
170	0x3daff3cc	0.085914224
171	0xbe356763	-0.1771522
172	0xbe31a171	-0.17346741
173	0xbded19aa	-0.11577161
174	0x3c1dfa22	0.009642156
175	0xbe2981b1	-0.1655338
176	0xbe68d5e8	-0.22737849
177	0x3d03f060	0.03221166
178	0xbd76b94a	-0.0602353
179	0xbcd1a291	-0.025590213
180	0xbe22dbf7	-0.15904222
181	0x3dd97779	0.10618491
182	0x3def6621	0.116894014
183	0xbe4d2ac1	-0.2003584
184	0xbe2ab838	-0.16671836
185	0xbd620ebb	-0.05518983
186	0xbd6edfd3	-0.058318924
187	0x3dd384d3	0.103280686
188	0xbdcc09ac	-0.09962782
189	0xbe41cc09	-0.1892549
190	0xbd364c27	-0.04450622
191	0xbc47d9c6	-0.012197917
192	0xbdfc4f1a	-0.12319775
193	0xbce4805d	-0.02789324
194	0xbd0f37ee	-0.034965448
195	0xbda98692	-0.082776204
196	0xbe55a5fe	-0.20864102
197	0xbc38b0c3	-0.011272612
198	0xbca09ec4	-0.019606955
199	0xbc20f891	-0.009824888
200	0x3cbbf47c	0.022943728
201	0xbd687dc5	-0.05676057
202	0x3c004b5a	0.007830465
203	0x3d232013	0.03982551
204	0xbde73e76	-0.1129121
205	0xbc958598	-0.018252179
206	0xbe676b72	-0.22599581
207	0x3cc99302	0.024606232
208	0x3dbbcf9e	0.09170459
209	0xbde84f6c	-0.113432735
210	0xbd9a9693	-0.07548251
211	0xbcd4e5d2	-0.025988493
212	0xbe0d26cd	-0.13784333
213	0x3df0cca5	0.11757783
214	0x3c6b3ec5	0.014358227
215	0xbc835e71	-0.016036244
216	0x3d1293bc	0.03578542
217	0x3cd796b7	0.026316984
218	0xbe39526b	-0.18097846
219	0xbe0104fb	-0.12599556
220	0xbc13d9a3	-0.009024057
221	0x3d8a9fe5	0.06768779
222	0xbbeb6e42	-0.0071847746
223	0x3e08e786	0.13369569
224	0xbbd6ef43	-0.006559284
225	0x3da7ed4f	0.0819956
226	0xbe21eed6	-0.15813765
227	0xbda3e713	-0.08003058
228	0xbd87f8a6	-0.06639223
229	0x3d0b2a59	0.033975933
230	0xbd6cd678	-0.05782172
231	0xbe18d2c9	-0.14924158
232	0xbd973180	-0.07382488
233	0x3d80e1ae	0.06293045
234	0x3d8bc0a4	0.06823853
235	0xbd9425de	-0.07233785
236	0x3d16ae2b	0.036787193
237	0x3df751a4	0.120761186
238	0xbe7b494f	-0.24539684
239	0xbda8faff	-0.08250999
240	0xbd8d7d91	-0.069087155
241	0xbcc06efa	-0.023490418
242	0x3e46aa21	0.19400837
243	0x3d905564	0.07047537
244	0x3cc99b37	0.024610145
245	0xbd820acf	-0.06349718
246	0xbdb9a5e1	-0.09064842
247	0x3daca267	0.08429413
248	0xbe50ca95	-0.20389779
249	0x3b0a6de4	0.0021122629
250	0xbd10f0db	-0.035385948
251	0xbbabedec	-0.0052468684
252	0x3c5015d1	0.012700514
253	0x3e027a76	0.12742028
254	0xbe070d76	-0.13188729
255	0xbe03aed3	-0.12859659

weight f4 [256, 512]
0	0xbcec7b28	-0.02886732
1	0xbd9de695	-0.07709996
2	0x3d959150	0.07303107
3	0xbe6f0424	-0.23341423
4	0x3d87e831	0.06636084
5	0x3d14ac07	0.03629687
6	0xbdbe9703	-0.09306147
7	0xbd3a9aa1	-0.045557622
8	0x3da47ac5	0.08031229
9	0xbde26c6d	-0.11055837
10	0x3e90f03a	0.28308278
11	0xbd4628c9	-0.04837874
12	0x3d97ce39	0.07412381
13	0xbd5c55c7	-0.05379274
14	0x3e8c841e	0.27444547
15	0xbdbf1cc3	-0.09331658
16	0xbd5969ec	-0.05307953
17	0x3cf58453	0.029970324
18	0x3dd3032d	0.1030334
19	0x3d1755cf	0.036947068
20	0xbcfe9066	-0.031074714
21	0x3cc9e130	0.02464351
22	0x3e1f4255	0.15552647
23	0x3d9a0638	0.075207174
24	0x3bb953c6	0.0056557385
25	0xbdf00d07	-0.11721235
26	0xbe762c6e	-0.24040386
27	0x3cacb30b	0.021081468
28	0x3cffafeb	0.031211814
29	0x3d8a47a4	0.067519456
30	0x3d8cdbc3	0.06877854
31	0x3c99afca	0.01876058
32	0x3cf44a02	0.029820446
33	0xbb95acb8	-0.004567709
34	0xbd9d6a81	-0.0768633
35	0x3e5bfb8a	0.21482673
36	0x3d0e2bc5	0.03470971
37	0x3bddbd17	0.006766926
38	0xbc880541	-0.016604068
39	0x3dc8fcbf	0.098138325
40	0x3e0bc4ba	0.13649264
41	0x3df4a3d8	0.11945313
42	0xbc415c31	-0.011801765
43	0x3df7fb39	0.12108464
44	0x3d8d9710	0.069135785
45	0xbe090ac6	-0.13383016
46	0x3e6dd02e	0.23223945
47	0x3d2f3db3	0.04278345
48	0x3e9912c9	0.29897144
49	0x3d97d852	0.07414307
50	0xbd597269	-0.053087626
51	0x3c72ab47	0.0148113435
52	0x3d84a7a3	0.06477287
53	0x3d405bb6	0.046962462
54	0xbd3e669e	-0.046484582
55	0x3de441ab	0.11145338
56	0xbc95fc1a	-0.018308688
57	0x3e2a8a98	0.16654432
58	0xbdbea7e3	-0.093093656
59	0xbd9a7ff9	-0.0754394
60	0x3d84125d	0.06448815
61	0xbd0dc89a	-0.034615137
62	0x3c8204a6	0.015871357
63	0xbd934ae4	-0.07192019
64	0x3cc26609	0.023730295
65	0xbdfc0a82	-0.12306692
66	0x3d45ef6f	0.048324045
67	0x3c2dfdc1	0.010619582
68	0x3d8b60ab	0.06805547
69	0xbdbcd66a	-0.09220584
70	0xbd8f33e2	-0.06992318
71	0x3e28170b	0.1641504
72	0xbc3074f1	-0.0107700685
73	0xbdf55381	-0.11978818
74	0x3e0cb372	0.13740328
75	0x3daac94d	0.08339176
76	0x3e566abd	0.20939155
77	0xbe5fb7e1	-0.21847488
78	0x3dfe2782	0.12409879
79	0xbe4661bb	-0.19373219
80	0x3e2b5116	0.1673015
81	0x3c581f38	0.013191037
82	0x3ca345c4	0.019930728
83	0x3c75b62c	0.014997046
84	0xbdbf530d	-0.093420126
85	0x3d2cfd32	0.042233653
86	0xbd277890	-0.04088646
87	0x3e0f6f0e	0.14007208
88	0x3d0e34bb	0.034718256
89	0xbd42c234	-0.047548488
90	0xbcb79521	-0.022409977
91	0xbcf1d897	-0.029522223
92	0xbd000ac9	-0.031260286
93	0x3d5cf1fc	0.05394171
94	0xbe45e0d1	-0.19324042
95	0xbb5bb4f1	-0.0033524598
96	0x3e0d49df	0.13797711
97	0x3db9a7a9	0.09065182
98	0x3d90dec5	0.0707374
99	0x3e11bd05	0.14232261
100	0xbcedee21	-0.029044213
101	0xbdb84cfc	-0.089990586
102	0xbc8415e4	-0.01612372
103	0x3da4688e	0.08027755
104	0x3ccdb84d	0.025112296
105	0x3e18967a	0.14901152
106	0x3d672035	0.0564272
107	0x3d8f46c0	0.06995916
108	0xbdb0c4b2	-0.08631267
109	0xbd4504d9	-0.048100326
110	0x3c46add0	0.012126401
111	0xbd8667f3	-0.065627955
112	0xbc9825ff	-0.018572805
113	0x3d8f509c	0.06997797
114	0x3d4e5b48	0.05038002
115	0x3e0e49c8	0.13895333
116	0x3e4ce981	0.2001095
117	0xbdf2ec16	-0.11861436
118	0xbd81c7a0	-0.063369036
119	0x3c4251d4	0.01186033
120	0xbdb7e231	-0.089786895
121	0x3c961716	0.018321555
122	0xbc534ec9	-0.012897202
123	0xbd8ef873	-0.06980982
124	0x3e0536f7	0.13009249
125	0xbe2136b0	-0.15743518
126	0x3d522fa2	0.051314957
127	0xbdfa7835	-0.12229959
128	0x3e3d0e0a	0.18462387
129	0x3d948dd5	0.07253615
130	0xbd8dd9d0	-0.0692631
131	0x3d26321c	0.04057513
132	0x3d961df9	0.073299356
133	0xbe7e12eb	-0.24811904
134	0xbc15ad1b	-0.00913551
135	0xbd9a1630	-0.07523763
136	0xbe842ce4	-0.258155
137	0x3c56d71e	0.013112811
138	0xbdd54850	-0.10414183
139	0x3d89681a	0.06709309
140	0x3e854c25	0.26034656
141	0x3e5016ed	0.20321245
142	0xbdf9a152	-0.121889725
143	0x3b8b4f4d	0.0042513967
144	0xbb7fb249	-0.0039016178
145	0xbd3a23ab	-0.045444172
146	0xbdfd6941	-0.12373591
147	0x3d770ba7	0.060313847
148	0xbda3fe21	-0.080074556
149	0xbb1f466d	-0.0024303452
150	0xbc5ac4bb	-0.013352568
151	0xbd29ae35	-0.041425902
152	0xbdaa6f3e	-0.08321999
153	0x3ed4a48b	0.41531786
154	0x3e03da30	0.128762
155	0x3d81f1be	0.06344937
156	0x3e518931	0.2046249
157	0xbd0cbd0b	-0.034359973
158	0xbdca972e	-0.098921165
159	0xbdd66894	-0.104691654
160	0x3d4634fd	0.048390377
161	0xbd8d0e28	-0.06887466
162	0xbd6a2e5e	-0.057173125
163	0xbd8fb84e	-0.07017575
164	0x3e7c95fb	0.24666588
165	0xbe1f6b86	-0.1556836
166	0xbdd1caa0	-0.10243726
167	0x3cb14b2b	0.021642288
168	0x3df91a7d	0.12163255
169	0x3d5c377a	0.053763844
170	0xbdd22163	-0.10260274
171	0x3da7549e	0.08170436
172	0x3c146f05	0.009059672
173	0x3e52516b	0.20538871
174	0x3d5d92e5	0.054095168
175	0x3d80dbb9	0.06291909
176	0xbd12ac57	-0.035808887
177	0x3e14f705	0.14547355
178	0x3d0424ed	0.032261778
179	0x3dca13a7	0.0986703
180	0xbc02542c	-0.007954638
181	0xbd4ffeed	-0.050780226
182	0xbda175f8	-0.07883829
183	0x3e6563a4	0.22401291
184	0xbda6ac6c	-0.081383556
185	0xbd9d76e8	-0.07688695
186	0xbd3c30e5	-0.045945067
187	0x3d324436	0.043522082
188	0xbe4287bf	-0.18997096
189	0xbdbd7ca3	-0.09252288
190	0x3ca2a185	0.01985241
191	0x3d32b85e	0.043632858
192	0xbde72e81	-0.11288167
193	0x3d772563	0.06033839
194	0xbd31624a	-0.043306626
195	0x3d9a4fac	0.075347275
196	0x3d81c7e5	0.06336955
197	0xbe012c64	-0.1261459
198	0x3e05aaf4	0.13053495
199	0x3e4b23bd	0.19837852
200	0xbe06f313	-0.13178663
201	0xbdadf58f	-0.08494102
202	0xbe326ed2	-0.17425087
203	0xbd4f3002	-0.050582893
204	0x3d9c6ddc	0.076381415
205	0x3df82b3e	0.12117623
206	0x3dd38fe2	0.10330178
207	0x3da770cd	0.08175812
208	0xbe615ceb	-0.22008102
209	0xbd9ddf92	-0.07708658
210	0xbe15d6bd	-0.14632697
211	0xbce83f28	-0.028350428
212	0x3c952d5f	0.018210111
213	0xbdb73118	-0.08944911
214	0x3d878d75	0.06618778
215	0xbddf2aaa	-0.108968094
216	0x3d62ce4e	0.05537253
217	0x3da6bbe9	0.0814131
218	0xbd856a65	-0.06514434
219	0xbc7b403e	-0.015335141
220	0xbb17f39f	-0.002318598
221	0x3d020362	0.031741507
222	0x3a9f8979	0.0012171707
223	0xbe79e50d	-0.24403782
224	0xbe91d0a4	-0.28479493
225	0x3e8f0808	0.27935815
226	0x3d065d2e	0.032803707
227	0xbd3ebbe5	-0.04656591
228	0xbe3cae4b	-0.18425862
229	0xbe80d7e3	-0.25164708
230	0x3dec0f11	0.11526311
231	0xbd52b45a	-0.051441528
232	0x3e241d4c	0.16026801
233	0xbdd31730	-0.10307157
234	0x3ca9fe7e	0.020751234
235	0x3c57c901	0.013170482
236	0x3e3b57a2	0.18295148
237	0x3d4aa7e0	0.049476504
238	0x3e0ac954	0.13553363
239	0xbdd134e9	-0.1021517
240	0x3de197cf	0.11015283
241	0x3dc700f9	0.097169824
242	0xbdacacfa	-0.0843143
243	0x3de9e779	0.11421103
244	0x3e8cf374	0.2752949
245	0xbc6a2f40	-0.014293492
246	0x3dd6a473	0.10480585
247	0xbe0d62ac	-0.13807172
248	0x3d859db8	0.06524223
249	0x3d84b74b	0.06480273
250	0xbc17bbd7	-0.009261093
251	0xbe06646d	-0.13124247
252	0xbe106530	-0.141011
253	0x3db985e0	0.09058738
254	0x3e1b537f	0.1516857
255	0xbd5990c2	-0.053116567

bias f4 [256]
0	0xbcfc62ef	-0.030808894
1	0xbe184741	-0.14870931
2	0xbdb8c090	-0.090211034
3	0x3cf43885	0.029812107
4	0xbdd6db08	-0.10490996
5	0xbdeb0e27	-0.11477309
6	0xbcf48d64	-0.029852577
7	0xbd7ce840	-0.06174493
8	0xbdc37b8d	-0.0954505
9	0xbda63c7b	-0.081170045
10	0xbe1c69ed	-0.15274782
11	0xbd7c9109	-0.061661754
12	0xbbc82837	-0.0061083096
13	0xbe159eb7	-0.14611326
14	0xbd226511	-0.039647166
15	0xbdccab9b	-0.09993669
16	0xbd18e375	-0.037326295
17	0xbddfac7d	-0.109215714
18	0xbe1503d9	-0.14552249
19	0xbd38b1aa	-0.04509131
20	0xbda9fd37	-0.0830025
21	0x3ca9aa3d	0.020711059
22	0x3d25eea1	0.040510777
23	0xbe922f23	-0.28551587
24	0xbd851975	-0.06498996
25	0xbe16b7fb	-0.1471862
26	0xbd8273bb	-0.0636973
27	0xbcb4b777	-0.02206014
28	0xbe042f58	-0.12908685
29	0xbc4ae194	-0.012382884
30	0xbd237f8e	-0.039916568
31	0xbdaf182b	-0.085495315
32	0xbcf27720	-0.029597819
33	0xbdbada00	-0.091236115
34	0x3d5b60e8	0.053559214
35	0xbdc20f7d	-0.094756104
36	0xbdcca7cc	-0.09992942
37	0xbdfe3038	-0.12411541
38	0xbd661fc7	-0.05618265
39	0xbdd843bb	-0.105597936
40	0x3d55b109	0.052170787
41	0xbe0f20f9	-0.13977422
42	0x3d8236b1	0.06358088
43	0xbd881269	-0.066441365
44	0xbe145552	-0.14485672
45	0xbe1c6524	-0.15272957
46	0xbdf1a868	-0.11799699
47	0xbd7e46d2	-0.06207926
48	0xbd7b9940	-0.061425447
49	0xbe2315cd	-0.15926285
50	0xbe30e9ef	-0.17276739
51	0xbd65309a	-0.055954553
52	0xbd5ba690	-0.053625643
53	0xbe1709c6	-0.14749822
54	0xbdec7827	-0.11546355
55	0xbe927319	-0.28603438
56	0xbd8c8694	-0.06861606
57	0xbc9984a3	-0.018740004
58	0xbda938cd	-0.08262787
59	0xbd925dbc	-0.07146785
60	0xbdc27518	-0.0949499
61	0xbdffc107	-0.12487989
62	0xbdf8fc55	-0.121575035
63	0xbe8282c9	-0.25490406
64	0xbdd94b46	-0.106100604
65	0xbe5c9350	-0.2154057
66	0xbdbb24b9	-0.09137864
67	0xbe14a1cd	-0.14514847
68	0xbdda4c41	-0.106590755
69	0xbd0de10f	-0.03463846
70	0xbd88ecd0	-0.066857934
71	0xbd72b964	-0.059258834
72	0xbe9187a8	-0.2842381
73	0xbce210c0	-0.027595878
74	0xbdcaf71a	-0.09910412
75	0xbccb7518	-0.024836108
76	0xbe7e0fb7	-0.24810682
77	0xbcd349df	-0.02579206
78	0xbd784868	-0.060615927
79	0xbe16a18d	-0.14710064
80	0xbda61066	-0.081085965
81	0x3d5b1333	0.053485107
82	0xbe0bf0a9	-0.13666023
83	0xbd243fb9	-0.040099833
84	0xbdbe48c6	-0.09291224
85	0xbd205486	-0.039143108
86	0xbc239bd6	-0.009985885
87	0xbcc6f481	-0.02428651
88	0xbdf4154f	-0.11918127
89	0xbdf97a63	-0.121815465
90	0xbe12607f	-0.14294623
91	0xbdce323a	-0.10068174
92	0xbd568bf6	-0.05237957
93	0xbdaef9f9	-0.08543772
94	0xbe2a6789	-0.16641058
95	0xbe2c3b17	-0.16819416
96	0xbd0e6ee3	-0.03477372
97	0xbe006bb8	-0.12541091
98	0xbd13ee82	-0.03611613
99	0xbdf30eb0	-0.11868036
100	0xbce1ddb5	-0.027571538
101	0xbdfc924e	-0.12332593
102	0xbd2033a6	-0.039111756
103	0xbd1e8600	-0.03870201
104	0xbdfe81ac	-0.12427077
105	0xbd632fa6	-0.055465363
106	0xbe887041	-0.26648143
107	0xbc8752ae	-0.016518917
108	0xbdb39d21	-0.08770204
109	0xbde57b55	-0.11205164
110	0xbe6f347b	-0.23359863
111	0xbe5c9034	-0.21539384
112	0xbdcdf97c	-0.10057351
113	0xbdc9c89a	-0.09852715
114	0xbda7c815	-0.081924595
115	0xbdb4693e	-0.08809136
116	0xbd9816eb	-0.07426246
117	0x3e1a73dd	0.15083261
118	0xbe012488	-0.12611592
119	0xbe0a4252	-0.13501862
120	0xbd397ad0	-0.04528314
121	0x3daf4270	0.08557594
122	0xbd478234	-0.048708156
123	0xbe0de320	-0.13856173
124	0xbd0c1ac2	-0.034205206
125	0xbdb02b00	-0.086019516
126	0xbe26d51f	-0.16292237
127	0xbbaeffad	-0.0053405375
128	0xbc3d454b	-0.011552165
129	0xbd5e5e41	-0.054289106
130	0xbe693487	-0.22773944
131	0xbdd6b67b	-0.10484024
132	0xbddad7fd	-0.10685728
133	0xbd24a1f1	-0.0401935
134	0xbe689855	-0.2271436
135	0xb99e4f53	-0.0003019521
136	0xbe44749e	-0.19185111
137	0xbdab8ce3	-0.083764814
138	0xbdbf933c	-0.093542546
139	0xbdfd5bf8	-0.12371057
140	0xbdbebb4b	-0.09313067
141	0xbe67e58a	-0.22646156
142	0xbc20189e	-0.009771494
143	0xbe130767	-0.14358293
144	0xbe3a4c99	-0.18193282
145	0xbe53f144	-0.20697504
146	0xbdfd0051	-0.12353576
147	0xbe381924	-0.1797834
148	0xbdbfd629	-0.0936702
149	0xbb00405b	-0.001956961
150	0xbdc2ace1	-0.0950563
151	0xbe3b9498	-0.18318403
152	0xbe16618d	-0.1468565
153	0xbe955c6e	-0.2917208
154	0xbd923f5f	-0.07140993
155	0xbe31db2f	-0.17368768
156	0xbe505fb1	-0.20349003
157	0xbdcbd69f	-0.09953045
158	0xbda7b75f	-0.08189272
159	0xbe0e50a6	-0.13897952
160	0xbd6c03df	-0.05762088
161	0xbe3352d4	-0.17512065
162	0xbd6203dc	-0.05517946
163	0xbd6fcaa7	-0.058542874
164	0xbe0c86f8	-0.13723361
165	0xbe805a35	-0.25068823
166	0xbe57d443	-0.21077065
167	0xbd4d11b9	-0.05006573
168	0xbdddee0e	-0.10836421
169	0xbe21acf4	-0.15788633
170	0xbd3371a5	-0.04380955
171	0xbd9b63e8	-0.07587415
172	0xbe5eb1da	-0.21747532
173	0xbd8c7bd5	-0.068595566
174	0xbde0a557	-0.10969036
175	0xbd801044	-0.062531024
176	0xbde23192	-0.11044611
177	0xbdb45cb7	-0.088067465
178	0xbd504e56	-0.050855957
179	0xbe86fe15	-0.26365724
180	0xbd9f6eab	-0.0778478
181	0xbe18155e	-0.14851901
182	0xbe1279bc	-0.1430425
183	0xbd44ed77	-0.048078027
184	0xbd2c0783	-0.04199935
185	0xbdb41185	-0.08792404
186	0xbdf6bfd2	-0.120483056
187	0xbe27a5fa	-0.16371909
188	0xbe8eaea9	-0.2786763
189	0xbd8745b2	-0.0660509
190	0xbd80bf74	-0.06286517
191	0xbbba81e9	-0.005691756
192	0xbdfe1d3a	-0.12407918
193	0xbdf3f085	-0.1191111
194	0xbe1b3a06	-0.15158853
195	0xbd88b025	-0.06674222
196	0xbd8a8185	-0.06762985
197	0xbe072169	-0.13196339
198	0xbc1b8edc	-0.00949451
199	0xbe80a28e	-0.2512402
200	0xbe8182e9	-0.2529519
201	0xbe5a0013	-0.21289091
202	0xbc944b2a	-0.018102247
203	0x3cc8b7dd	0.024501735
204	0xbd2160cd	-0.039398957
205	0xbe61a0f9	-0.22034062
206	0xbdc7386c	-0.097275585
207	0xbdca6b0a	-0.09883697
208	0x3d10a8a5	0.035317082
209	0xbe734ac7	-0.23758994
210	0xbcd282ce	-0.025697138
211	0x3c2703a2	0.010193737
212	0xbb51e969	-0.0032029992
213	0xbc9e3a89	-0.019315021
214	0xbd98aaf2	-0.0745448
215	0xbdfaa14f	-0.122377984
216	0xbd02d8e0	-0.03194511
217	0x3c011764	0.007879112
218	0xbe08051b	-0.13283198
219	0xbd1861bd	-0.037202585
220	0xbe0336f3	-0.1281393
221	0xbdf0c549	-0.11756379
222	0xbd96474b	-0.07337817
223	0xbe3cfc6a	-0.18455663
224	0xbe42ee93	-0.19036321
225	0xbddfe6e1	-0.109327085
226	0xbd6110c1	-0.05494762
227	0xbdc26eaf	-0.094937675
228	0xbd8d219b	-0.06891175
229	0xbdbd6ee5	-0.09249667
230	0xbd236491	-0.03989083
231	0xbc35bf95	-0.01109304
232	0xbe1541a5	-0.14575823
233	0x3a7dcf9b	0.00096821197
234	0xbe1d1d9a	-0.15343323
235	0xbd834d8d	-0.06411276
236	0xbcbc94c2	-0.023020152
237	0xbdb9fef1	-0.09081829
238	0xbe70e897	-0.23526226
239	0xbde63254	-0.11240068
240	0xbea46e0e	-0.32115215
241	0xbbc57036	-0.0060253395
242	0xbe4b02db	-0.19825308
243	0xbe3afabe	-0.18259713
244	0xbd8a777f	-0.06761073
245	0xbe565941	-0.20932485
246	0xbe44cfeb	-0.1921994
247	0xbe47a5db	-0.19496863
248	0xbdfdf723	-0.12400653
249	0xbddf0e5c	-0.10891411
250	0xbdbb3ac4	-0.09142068
251	0xbd48631e	-0.04892265
252	0xbdd2e8be	-0.10298298
253	0x3c8763cd	0.01652708
254	0xbe79084b	-0.2431957
255	0xbdc2de4d	-0.09515057

weight f4 [128, 256]
0	0xbd6c52d2	-0.05769617
1	0xbe43e2c6	-0.19129476
2	0x3d166983	0.036721718
3	0xbe1ce5ca	-0.15322033
4	0x3e0c34b4	0.1369198
5	0x3d82be74	0.06383982
6	0xbe3fa915	-0.18716843
7	0x3d29cddc	0.04145609
8	0x3d4734d8	0.04863438
9	0xbd3f05b6	-0.046636306
10	0x3cabf6d1	0.020991715
11	0x3de9ca0d	0.11415491
12	0xbd973949	-0.07383973
13	0x3dc17fed	0.09448228
14	0x3d3c14f2	0.045918413
15	0xbc1f60f1	-0.0097277025
16	0xbcf1cab8	-0.02951561
17	0xbc0c15c7	-0.008550114
18	0xbcd77aab	-0.02630361
19	0xbe01bdee	-0.12670109
20	0xbd2f83e7	-0.0428504
21	0x3d2dcf6f	0.042434152
22	0xbd45db14	-0.048304632
23	0xbba010e2	-0.004884825
24	0xbc036d58	-0.008021675
25	0xbd706f7e	-0.058700077
26	0xbd37e470	-0.04489559
27	0x3e12c62a	0.14333406
28	0x3c9f81f3	0.019471144
29	0xbe022676	-0.12709984
30	0x3d7ca504	0.06168081
31	0x3d3a9098	0.04554805
32	0x3d41be3b	0.04730056
33	0xbd2f621d	-0.042818177
34	0xbd3fb65e	-0.04680478
35	0xbd0afa1c	-0.03392993
36	0x3d5e5b00	0.054286003
37	0xbd719997	-0.058984365
38	0x3c52a3b0	0.012856409
39	0xbe79b9da	-0.24387303
40	0x3d2e7a22	0.042596944
41	0x3d435b1d	0.047694314
42	0xbd77a702	-0.060462005
43	0x3dc06d42	0.09395839
44	0xbc1d5172	-0.009601938
45	0xbd8b99f3	-0.06816473
46	0x3dc9cfdb	0.098540984
47	0x3b5d5113	0.0033770248
48	0xbdfd5b67	-0.12370949
49	0xbd9f1727	-0.07768088
50	0xbd57c0e0	-0.052674174
51	0x3db5f7c5	0.08885149
52	0xbc8adad7	-0.016950054
53	0xbc9ce8d7	-0.019153995
54	0x3ca7df41	0.020492198
55	0x3c861f85	0.016372452
56	0xbd1ce4a8	-0.038304
57	0xbe0006b2	-0.12502554
58	0x3cb2e3dc	0.021837167
59	0x3d559d1f	0.052151795
60	0xbd0e130d	-0.034686137
61	0x3dc219dc	0.094775885
62	0x3d81a0d4	0.06329504
63	0x3cab6d4a	0.020926137
64	0xbc7f2be9	-0.015574434
65	0xbd52c562	-0.05145777
66	0xbd8d0266	-0.06885223
67	0x3e35151a	0.17683831
68	0x3dc61e42	0.0967374
69	0xbcf7e9e5	-0.030262897
70	0xbd82c73f	-0.063856594
71	0xbdb64a10	-0.08900845
72	0xbc803cbf	-0.015653966
73	0x3cdca334	0.02693329
74	0xbc67571c	-0.01411989
75	0x3d1fbefc	0.039000496
76	0x3dd8449f	0.105599634
77	0xbdc4a628	-0.09602004
78	0x3db0e9ef	0.08638369
79	0xbd1775e2	-0.036977656
80	0x3b0237e2	0.0019869735
81	0xbe198f77	-0.14996134
82	0x3e22719f	0.15863656
83	0xbe658914	-0.22415572
84	0xbd7851bc	-0.060624823
85	0xbc20d2a8	-0.009815849
86	0x3c981893	0.018566405
87	0x3d3a4c55	0.045482952
88	0xbd27a4b7	-0.04092857
89	0xbe2b3aa6	-0.16721591
90	0x3d97e824	0.07417324
91	0x3dbe885e	0.09303354
92	0x3c70bc29	0.014693298
93	0xbd85f451	-0.0654074
94	0x3e251caf	0.16124223
95	0xbd3533f0	-0.044238985
96	0x3d8bd2cc	0.06827316
97	0xbdb4c53b	-0.08826681
98	0xbdbb069f	-0.09132122
99	0x3daf3c83	0.085564636
100	0x3d0c1936	0.03420373
101	0xbcb762cd	-0.02238598
102	0xbd1a53d8	-0.037677616
103	0xbbddec59	-0.0067725596
104	0xbc8c76e9	-0.017146545
105	0x3d25f309	0.04051498
106	0xbcbbe2cc	-0.022935294
107	0xbd727f94	-0.0592037
108	0x3c3c375f	0.011487811
109	0xbd72f4e2	-0.05931557
110	0xbd9816f1	-0.07426251
111	0xbd5abe77	-0.053404298
112	0xbd9d1b99	-0.076712795
113	0x3b6ee052	0.0036449623
114	0xbe073242	-0.13202766
115	0x3d614120	0.05499375
116	0xbdc061e7	-0.093936734
117	0xbdb6dbfc	-0.089286774
118	0x3d983352	0.074316636
119	0xbc8faee5	-0.01753945
120	0xbd0badad	-0.034101177
121	0xbc0a0eed	-0.00842641
122	0xbbe084f3	-0.0068517863
123	0x3de2c167	0.11072045
124	0xbd8f0a61	-0.069844015
125	0xbdf5e308	-0.120061934
126	0x3ca54c67	0.020178033
127	0xbba8d5b9	-0.005152431
128	0x3c816303	0.015794283
129	0x3e1ee568	0.15517199
130	0xbd7a0ca6	-0.06104722
131	0x3d1c81e9	0.03820983
132	0xbd4f5eed	-0.050627638
133	0xbbc9635d	-0.006145878
134	0x3dbe2fec	0.09286484
135	0x3dd87bc1	0.10570479
136	0xbc4fdd86	-0.012687093
137	0x3cde4e65	0.02713699
138	0x3dde6849	0.108597346
139	0xbe148cb3	-0.14506797
140	0xbbf3b495	-0.0074372985
141	0xbca69b4e	-0.020337727
142	0xbdc2d0ea	-0.095125034
143	0xbc34d29b	-0.01103654
144	0xbd049b38	-0.03237459
145	0x3dafa19d	0.08575747
146	0xbcf00f06	-0.029304039
147	0x3e07f366	0.13276443
148	0x3c7ae390	0.015313044
149	0xbd008f07	-0.0313864
150	0xbd49f5da	-0.049306728
151	0xbd0b6bc1	-0.03403831
152	0xbde075e3	-0.10959985
153	0x3dfdaab1	0.123860724
154	0x3bda99d0	0.006671168
155	0x3b6fe3c8	0.0036604274
156	0xbddb42c6	-0.107060954
157	0xbd0e5d43	-0.03475691
158	0x3c46de1d	0.012137917
159	0xbd954462	-0.072884336
160	0xbe0d3a37	-0.13791738
161	0x3db60641	0.088879116
162	0xbd84ed67	-0.064905934
163	0x3d4a7f3b	0.049437743
164	0xbd987e86	-0.074460074
165	0x3d0c8257	0.03430399
166	0xbe240671	-0.16018082
167	0xbcedfe81	-0.029052021
168	0x3c26e73b	0.010186966
169	0x3d85cdaf	0.06533372
170	0xbd7a6ac9	-0.061136995
171	0xbd45c89a	-0.04828701
172	0xbcdcacf0	-0.026937932
173	0xbc897381	-0.01677871
174	0x3decb65b	0.11558219
175	0xbdbadcba	-0.091241315
176	0x3bbe3e6b	0.0058057806
177	0x3b8d80ec	0.004318347
178	0xbb886190	-0.004162021
179	0xbe183327	-0.14863263
180	0x3e88e703	0.26738748
181	0x3cd775bf	0.026301263
182	0xbdc76e70	-0.09737861
183	0x3d0474bd	0.032337893
184	0xbd765688	-0.060141116
185	0xbdcd414a	-0.100222185
186	0x3d8da4ce	0.069161996
187	0xbc006946	-0.007837599
188	0xba3a17fb	-0.000709891
189	0x3e1ac2b5	0.15113337
190	0x3d0da526	0.034581326
191	0x3cd36fd7	0.025810165
192	0x3d169506	0.036763214
193	0x3e4020ef	0.18762563
194	0x3d805c30	0.06267583
195	0xbcfc174d	-0.03077283
196	0xbd96e86d	-0.073685504
197	0xbd809fd6	-0.06280486
198	0xbd380f2d	-0.044936348
199	0xbca6220c	-0.020279907
200	0x3d108324	0.035281315
201	0xbd918103	-0.07104685
202	0x3e37eed6	0.17962202
203	0x3dd8c51e	0.10584472
204	0x3df2b09f	0.11850094
205	0x3dccebb9	0.10005898
206	0xbd1c7ba5	-0.038203854
207	0xbd20a1af	-0.039216693
208	0x3d74e31d	0.059786905
209	0x3d9c9ad3	0.07646718
210	0x3e1c7ecb	0.15282743
211	0x3cc2cf4f	0.023780493
212	0xbe05214d	-0.13000984
213	0xbe045436	-0.12922749
214	0x3d08434d	0.033267308
215	0x3e0bcab7	0.13651548
216	0xbd3e1d18	-0.046414465
217	0x3cb908a1	0.022587122
218	0xbdc1ec16	-0.09468858
219	0x3d5ff7e4	0.054679766
220	0xbb4e0906	-0.0031438484
221	0xbb58bf83	-0.0033073134
222	0xbaeaa78b	-0.0017902715
223	0x3d1992ae	0.0374934
224	0xbce72577	-0.028216107
225	0x3b1da632	0.002405536
226	0x3d9a0f79	0.075224824
227	0xbd98bba7	-0.07457667
228	0xbdf0ea25	-0.117634095
229	0x3cf1c777	0.029514058
230	0x3d8eb206	0.06967549
231	0x3e1ad3c8	0.1511985
232	0xbcf96e9a	-0.030448247
233	0x3d330c11	0.04371268
234	0xbd3b8c46	-0.045788072
235	0x3c0ffe3f	0.008788644
236	0x3d1dcc05	0.038524646
237	0x3d9a6297	0.07538336
238	0xbb9780ce	-0.004623509
239	0x3d8d5507	0.06900983
240	0x3da331ba	0.07968469
241	0xbd80843d	-0.062752225
242	0xbd7e85c2	-0.06213928
243	0xbcf64f73	-0.030067181
244	0x3ddcacdb	0.10775157
245	0xbcd61915	-0.026135007
246	0x3dc792d8	0.09744805
247	0x3d0c66b1	0.03427762
248	0x3d392020	0.045196652
249	0x3dab3a2a	0.08360703
250	0x3e158137	0.14600073
251	0x3b5bbfdc	0.0033531105
252	0x3ce8d279	0.028420674
253	0xbd968a6c	-0.073506206
254	0x3e22efce	0.1591179
255	0x3d1ed179	0.038773987

bias f4 [128]
0	0xbdbc1241	-0.09183169
1	0xbdbe9e3c	-0.093075246
2	0xbdbfd9dc	-0.09367725
3	0xbd9cf28a	-0.07663448
4	0xbe147b38	-0.14500129
5	0xbeaafeec	-0.33397615
6	0xbe2d2c4b	-0.16911428
7	0xbdcaf2fd	-0.099096276
8	0x3e490105	0.19629295
9	0xbeb6cf77	-0.35705158
10	0xbe907a46	-0.28218287
11	0xbe0e0ef7	-0.13872896
12	0xbd37e2fc	-0.044894204
13	0x3e418c25	0.18901117
14	0xbd5d3425	-0.054004807
15	0xbddda5a9	-0.10822613
16	0xbe4cfb9d	-0.20017858
17	0xbe3baaae	-0.18326828
18	0xbdc93f7f	-0.09826564
19	0xbd76aa73	-0.060221147
20	0xbebcbd0f	-0.3686299
21	0xbd03747c	-0.03209351
22	0xbdbf4fdc	-0.09341404
23	0xbe39d558	-0.1814779
24	0xbe1d8da3	-0.15386061
25	0xbe137489	-0.14399923
26	0xbc9b1f9b	-0.01893597
27	0x3a9b3c74	0.0011843578
28	0xbd90101e	-0.07034324
29	0xbcdae499	-0.026720332
30	0xbdc48290	-0.09595215
31	0xbe347750	-0.17623639
32	0xbe0a205f	-0.13488911
33	0xbdfb1117	-0.12259119
34	0xbdce0450	-0.10059416
35	0xbd7ae90f	-0.06125742
36	0xbd833620	-0.06406808
37	0xbde20696	-0.110364124
38	0xbe19024b	-0.14942281
39	0xbe07f7bc	-0.13278097
40	0xbd6cdee2	-0.057829745
41	0xbe9befd7	-0.3045642
42	0xbd3663ec	-0.044528887
43	0xbcb6e6d4	-0.022326864
44	0xbd54348e	-0.051807933
45	0xbdad8364	-0.084723264
46	0xbd2d33a2	-0.04228557
47	0x3e132207	0.14368449
48	0xbd35cb67	-0.044383433
49	0xbd6fc313	-0.058535647
50	0xbddd41f7	-0.108035974
51	0xbe344dd7	-0.17607819
52	0xbe0113b3	-0.12605171
53	0xbde531f4	-0.111911684
54	0xbe849708	-0.25896478
55	0xbdbc41d8	-0.09192246
56	0xbdf90b6f	-0.12160384
57	0xbe8a73de	-0.27041525
58	0xbd8038d2	-0.062608376
59	0xbd8aaced	-0.06771264
60	0xbd38348a	-0.04497198
61	0xbd975f9e	-0.073912844
62	0xbdf2a068	-0.11847001
63	0xbe836078	-0.25659537
64	0xbd66a344	-0.056308046
65	0xbe3d8787	-0.18508731
66	0xbe3d6de4	-0.18498951
67	0xbd9654bc	-0.073403805
68	0xbdb62f27	-0.08895712
69	0xbe0ef380	-0.13960075
70	0xbe1086b1	-0.1411388
71	0xbd80be82	-0.062863365
72	0xbd1a5f8f	-0.037688788
73	0xbe14787e	-0.14499089
74	0xbe5ceb32	-0.21574095
75	0xbe66cd5a	-0.22539273
76	0xbe241097	-0.16021954
77	0xbe52aaf8	-0.20573032
78	0xbe061ac3	-0.13096146
79	0xbdbf537e	-0.09342097
80	0xbd6610dc	-0.056168422
81	0xbda7b7e9	-0.08189375
82	0xbd85a161	-0.06524921
83	0xbeb51e57	-0.3537471
84	0xbe620798	-0.2207321
85	0xbd1e59f0	-0.03865999
86	0xbdc845f2	-0.09778966
87	0xbbe0b0c0	-0.0068570077
88	0xbd2bdbde	-0.04195773
89	0xbdac4ea4	-0.08413437
90	0xbd15f735	-0.036612708
91	0xbe1e69f2	-0.15470102
92	0xbc9071eb	-0.017632445
93	0xbcb5cb74	-0.02219174
94	0xbde917df	-0.11381506
95	0xbda99d44	-0.08281949
96	0xbda029cd	-0.07820473
97	0xbd9bfe98	-0.07616919
98	0xbe5f8d15	-0.21831162
99	0x3c2d57ce	0.010580016
100	0xbd4e946d	-0.05043452
101	0xbe1b08e5	-0.15140112
102	0xbe20b5e3	-0.15694384
103	0xbd5b7168	-0.05357495
104	0xbe74c52f	-0.23903345
105	0xbe8962d2	-0.26833206
106	0xbd7eae55	-0.062177975
107	0xbd61f301	-0.055163387
108	0xbe813c74	-0.25241435
109	0xbe8a223f	-0.26979253
110	0xbec5266c	-0.38505876
111	0xbdfff77c	-0.12498376
112	0xbd01ecbd	-0.03171991
113	0xbdde201f	-0.1084597
114	0xbee19f6b	-0.4406694
115	0xbdb41e4e	-0.08794843
116	0xbdb78684	-0.08961204
117	0xbe3d585e	-0.1849074
118	0xbe2fceca	-0.17168728
119	0xbe76241f	-0.24037217
120	0xbe03d4bb	-0.12874119
121	0xbdd9262c	-0.10602984
122	0xbdacaa0a	-0.0843087
123	0xbe1aada3	-0.151053
124	0xbea436b1	-0.32072976
125	0xbd6184cf	-0.055058297
126	0xbe35cd5a	-0.17754117
127	0x3df5fb46	0.12010817

weight f4 [12, 128]
0	0x3c945884	0.018108614
1	0xbcdc2ca4	-0.026876755
2	0xbc74fb3c	-0.014952477
3	0xbcab76aa	-0.020930607
4	0x3d449160	0.047990203
5	0xbc201341	-0.0097702155
6	0xbc37bb00	-0.011214018
7	0x3c3c3901	0.0114882
8	0xbd3979ab	-0.045282047
9	0x3cfa8142	0.030579213
10	0x3da5b669	0.080914326
11	0x3b31a6a9	0.0027107394
12	0x3cb9a23b	0.022660365
13	0x3d8cf7a1	0.06883169
14	0xbc902848	-0.017597333
15	0x3d69bc74	0.05706449
16	0xbd323d18	-0.043515295
17	0xbd22c4dc	-0.03973852
18	0xbd3fa396	-0.046786867
19	0x3c24130f	0.01001431
20	0xbcfa3a1d	-0.030545289
21	0xbc87252b	-0.016497215
22	0x3d26ea92	0.040751047
23	0xbc9fb495	-0.019495288
24	0xbcf5043a	-0.029909242
25	0x3be24ff8	0.0069065057
26	0x3c9dc2fd	0.019258017
27	0x3c99e10d	0.01878407
28	0xbc4c6e72	-0.012477504
29	0x3c4cc6a0	0.012498528
30	0x3d05d753	0.032676052
31	0x3d3412b8	0.043963164
32	0xbc957a53	-0.018246805
33	0x3c199847	0.009374685
34	0x3d06d2b3	0.032915782
35	0xbccd7175	-0.025078515
36	0x3d819563	0.063273214
37	0x3ce863df	0.028367935
38	0x3c8839d4	0.016629137
39	0x3d55d660	0.052206397
40	0x3b813eff	0.0039442773
41	0xbd18544a	-0.03718976
42	0xbba5c452	-0.0050588036
43	0x3cc60039	0.024170028
44	0x3d45cf80	0.04829359
45	0x3c8023ff	0.015642164
46	0x3ca48054	0.020080723
47	0x3c61dd16	0.013785621
48	0x3d526256	0.05136331
49	0x3d847e59	0.064694114
50	0xbd6723e1	-0.0564307
51	0xbca5dae8	-0.020245984
52	0xbba85a15	-0.0051376917
53	0x3dc5e080	0.096619606
54	0x3caf356a	0.021387774
55	0xbce807b9	-0.028323995
56	0x3d53b8fe	0.051690094
57	0xbd39705f	-0.04527318
58	0xbb1262fc	-0.0022336831
59	0xbc829418	-0.015939757
60	0x3b23b830	0.002498161
61	0x3a694fbb	0.00089001254
62	0xbb60fb2e	-0.0034329402
63	0xbd13ec1a	-0.036113836
64	0x3ca5747c	0.020197146
65	0x3d2f46f0	0.04279226
66	0xbcbe5942	-0.02323592
67	0x3d38b539	0.045094702
68	0xbd3917fa	-0.04518888
69	0x3cef5680	0.029216051
70	0x3aea8f45	0.0017895481
71	0x3c966e1b	0.01836305
72	0xbd383f10	-0.044982016
73	0x3bc34e69	0.005960275
74	0xbd79996a	-0.060937323
75	0x3b06c0ad	0.002056162
76	0xbd19b534	-0.037526324
77	0x3d0f69d6	0.035013042
78	0xbcb7d47c	-0.022440188
79	0x3d59a959	0.053140018
80	0xbc83f214	-0.016106643
81	0x3c79772c	0.015226167
82	0x3d0f2fe0	0.034957767
83	0xbd3f8db0	-0.046765983
84	0x3d0cd3a4	0.034381524
85	0xbd2a7535	-0.041615684
86	0xbbcf8cf8	-0.0063339435
87	0x3c6627b7	0.014047555
88	0xbbdf8147	-0.006820831
89	0xbcc5a855	-0.024128119
90	0xbb444724	-0.002994963
91	0x3da7ac64	0.08187178
92	0xbd41c978	-0.047311276
93	0xbc6c9f13	-0.014442223
94	0xbc9fc4e4	-0.019503064
95	0xbc6bddeb	-0.014396171
96	0xbd115c3c	-0.035488352
97	0xbca308c3	-0.019901639
98	0xbd40d84c	-0.047081277
99	0x3cd44a2d	0.025914276
100	0x3d4af4a7	0.049549725
101	0xbc3db413	-0.011578578
102	0x3b9dc7be	0.004815071
103	0xbd3667e2	-0.044532664
104	0xbc29b99a	-0.010359192
105	0x3ce94273	0.028474068
106	0xbcf27d23	-0.029600685
107	0x3b29771b	0.0025858346
108	0x3c887a5b	0.016659906
109	0x3ca15e5a	0.01969831
110	0xbd0e615d	-0.03476082
111	0xbd0e08a5	-0.034676213
112	0x3c909d44	0.017653115
113	0x3bf4964b	0.0074642054
114	0xbc4a453f	-0.012345611
115	0x3dbd5c5b	0.09246131
116	0xbbf14256	-0.007362644
117	0xbc0c56a4	-0.008565579
118	0x3b864d32	0.004098558
119	0xbcb5a3c7	-0.022172822
120	0xbc85e77c	-0.016345732
121	0xb85a6d73	-5.2077183e-05
122	0x3c5478eb	0.012968282
123	0x3d0d83ac	0.0345494
124	0xbcad9462	-0.021188919
125	0xbd37bc74	-0.044857457
126	0x3c9c60c1	0.019089105
127	0x3d438b81	0.047740463
128	0x3cd5ba07	0.026089681
129	0x3d7c9b71	0.061671678
130	0x3d15f506	0.036610626
131	0x3addaf3a	0.0016913183
132	0x3d51e84f	0.051246937
133	0xbc26ba74	-0.01017629
134	0x3d4bc4e3	0.049748313
135	0xbce17b4b	-0.027524611
136	0xbc80bacf	-0.015714077
137	0xbd05fc08	-0.03271106
138	0x3cd7497c	0.026280157
139	0x3cdf0974	0.027226187
140	0x3c0bbfbc	0.0085296
141	0xbd043e7c	-0.032286152
142	0x3c0e86f4	0.0086991675
143	0xbaab8725	-0.0013086541
144	0x3db88017	0.09008806
145	0xbc221747	-0.009893245
146	0xbb89f38b	-0.004209941
147	0x3c968c29	0.01837738
148	0x3d363ee3	0.044493567
149	0xbbb91873	-0.0056486665
150	0x3d02c38f	0.03192478
151	0x3d0e1261	0.034685496
152	0xbcb5b4e3	-0.02218098
153	0x3ccdf991	0.025143417
154	0xbae2ceb2	-0.0017304032
155	0xbd41ad91	-0.047284666
156	0x3c4a3ca2	0.012343558
157	0x3cbf9a59	0.023389028
158	0xbce5a052	-0.028030548
159	0xbc7f0b64	-0.015566681
160	0xbba858d6	-0.005137543
161	0x3d052353	0.03250439
162	0xbdd5b81d	-0.104355074
163	0xbd758b75	-0.05994745
164	0xbc69fcce	-0.014281465
165	0xbd81671a	-0.06318493
166	0x3cb25951	0.021771105
167	0xbd2e61f6	-0.04257389
168	0xbd7e7578	-0.062123746
169	0xbcd02199	-0.025406646
170	0xbcce4217	-0.025177998
171	0xbd8ee241	-0.06976748
172	0x3b8435df	0.0040347422
173	0x3d3c9a50	0.0460456
174	0xbc8f4b26	-0.017491888
175	0x3c87ff01	0.016601088
176	0xbc9edbf6	-0.019391995
177	0xbd5f6c06	-0.05454638
178	0x3d084cfb	0.03327654
179	0x3da54c36	0.08071177
180	0xbe0260b5	-0.12732203
181	0xbc2e098f	-0.010622396
182	0x3d0863df	0.03329837
183	0xbd8e3e89	-0.069455214
184	0x3d03fc8e	0.032223277
185	0x3c836bf5	0.016042689
186	0xbb64be2b	-0.0034903388
187	0x3cb6881d	0.0222817
188	0xbd8b1f53	-0.06793084
189	0xbd908e34	-0.07058373
190	0xbd5ee2e8	-0.054415613
191	0xbb8da1a2	-0.0043222466
192	0x3b041f29	0.0020160174
193	0x3a9bea21	0.0011895337
194	0x3d195a5b	0.037439685
195	0xbc97a354	-0.018510498
196	0x3c384d8c	0.011248957
197	0xbd8e4443	-0.06946614
198	0x3d316c79	0.04331634
199	0xbc1d4a31	-0.009600208
200	0xbd2e0317	-0.042483415
201	0x3d115684	0.0354829
202	0x3cda6567	0.02665968
203	0xbc4f5bd4	-0.012656171
204	0x3d679aec	0.05654423
205	0xbd995c2f	-0.07488286
206	0x3d46e092	0.04855401
207	0x3d35ef19	0.044417474
208	0xbd62b60b	-0.05534939
209	0x3d0a3850	0.03374511
210	0xbd006547	-0.031346586
211	0x3d493e84	0.049131885
212	0xbc5060ae	-0.012718363
213	0x3ba3096e	0.0049754893
214	0xbd49996b	-0.049218576
215	0xbd933b9d	-0.07189105
216	0xbbc7820a	-0.0060885
217	0xbd3d710c	-0.046250388
218	0x3d7b4cd5	0.06135257
219	0x3d580812	0.05274207
220	0x3cc639a7	0.024197413
221	0xbd8b9c21	-0.068168886
222	0xbc817453	-0.015802538
223	0x3d44c448	0.04803875
224	0xbc4d52a8	-0.012531914
225	0xbcebb207	-0.028771413
226	0x3d86f070	0.065888286
227	0xbb5d62a0	-0.003378071
228	0x3cad35d8	0.021143839
229	0xbccaa13b	-0.024735084
230	0x3a2c4e86	0.000657298
231	0x3c1dde1e	0.009635476
232	0x3d99498a	0.074847296
233	0x3cbc253e	0.022966977
234	0x3c92baea	0.017911393
235	0xbb5b2329	-0.0033437705
236	0x3b5c4776	0.003361193
237	0x3ac0c809	0.0014708053
238	0x3d1d1ce4	0.03835763
239	0xba917e03	-0.0011100176
240	0x3cc6a4a7	0.024248434
241	0x3d5d1677	0.053976502
242	0x3cfd3874	0.030910708
243	0x3ce96007	0.028488172
244	0x3d841275	0.06448833
245	0x3ce06ce5	0.027395675
246	0x3d716f0a	0.058943786
247	0x3c98616b	0.01860114
248	0x3cddcfa6	0.027076554
249	0xbc602651	-0.01368101
250	0x3c8a2ab7	0.016866071
251	0xbcb80e65	-0.022467801
252	0x3d255bfc	0.040370926
253	0xbc69f1f2	-0.014278876
254	0xbd1c7319	-0.038195703
255	0xbc4df565	-0.012570714

bias f4 [12]
0	0xbceb4f92	-0.028724466
1	0xbcafda71	-0.021466466
2	0x3b97e167	0.0046350244
3	0xbc9369e8	-0.017994836
4	0x3d8c6944	0.06856015
5	0xbde729eb	-0.11287292
6	0x3a91f25a	0.0011134848
7	0x3e62346b	0.22090308
8	0x3ebe5cc0	0.37180138
9	0xbde8dced	-0.11370263
10	0x3e460302	0.19337085
11	0x3edd67c5	0.43243232
